[2023-04-29 13:56:30][base_learner.py:338][INFO] [RANK0]: DI-engine DRL Policy
MAVAC(
  (actor_encoder): Identity()
  (critic_encoder): Identity()
  (critic_head): Sequential(
    (0): Linear(in_features=48, out_features=512, bias=True)
    (1): ReLU()
    (2): RegressionHead(
      (main): Sequential(
        (0): Linear(in_features=512, out_features=512, bias=True)
        (1): ReLU()
      )
      (last): Linear(in_features=512, out_features=1, bias=True)
    )
  )
  (actor_head): Sequential(
    (0): Linear(in_features=18, out_features=256, bias=True)
    (1): ReLU()
    (2): DiscreteHead(
      (Q): Sequential(
        (0): Sequential(
          (0): Linear(in_features=256, out_features=256, bias=True)
          (1): ReLU()
          (2): Linear(in_features=256, out_features=256, bias=True)
          (3): ReLU()
        )
        (1): Sequential(
          (0): Linear(in_features=256, out_features=5, bias=True)
        )
      )
    )
  )
  (actor): ModuleList(
    (0): Identity()
    (1): Sequential(
      (0): Linear(in_features=18, out_features=256, bias=True)
      (1): ReLU()
      (2): DiscreteHead(
        (Q): Sequential(
          (0): Sequential(
            (0): Linear(in_features=256, out_features=256, bias=True)
            (1): ReLU()
            (2): Linear(in_features=256, out_features=256, bias=True)
            (3): ReLU()
          )
          (1): Sequential(
            (0): Linear(in_features=256, out_features=5, bias=True)
          )
        )
      )
    )
  )
  (critic): ModuleList(
    (0): Identity()
    (1): Sequential(
      (0): Linear(in_features=48, out_features=512, bias=True)
      (1): ReLU()
      (2): RegressionHead(
        (main): Sequential(
          (0): Linear(in_features=512, out_features=512, bias=True)
          (1): ReLU()
        )
        (last): Linear(in_features=512, out_features=1, bias=True)
      )
    )
  )
)
[2023-04-29 13:56:36][base_learner.py:338][INFO] [RANK0]: learner save ckpt in ./ptz_simple_spread_mappo_seed0_230429_135625/ckpt/ckpt_best.pth.tar
[2023-04-29 13:56:55][base_learner.py:338][INFO] [RANK0]: === Training Iteration 0 Result ===
[2023-04-29 13:56:55][learner_hook.py:224][INFO] 
+-------+------------+----------------+-----------------+----------------+
…
