[2023-04-11 20:30:04][base_learner.py:338][INFO] [RANK0]: DI-engine DRL Policy
VAC(
  (encoder): ConvEncoder(
    (act): ReLU()
    (main): Sequential(
      (0): Conv2d(4, 64, kernel_size=(8, 8), stride=(4, 4))
      (1): ReLU()
      (2): Conv2d(64, 64, kernel_size=(4, 4), stride=(2, 2))
      (3): ReLU()
      (4): Conv2d(64, 128, kernel_size=(3, 3), stride=(1, 1))
      (5): ReLU()
      (6): Flatten(start_dim=1, end_dim=-1)
    )
    (mid): Linear(in_features=6272, out_features=128, bias=True)
  )
  (critic_head): RegressionHead(
    (main): Sequential(
      (0): Linear(in_features=128, out_features=128, bias=True)
      (1): ReLU()
    )
    (last): Linear(in_features=128, out_features=1, bias=True)
  )
  (actor_head): DiscreteHead(
    (Q): Sequential(
      (0): Sequential(
        (0): Linear(in_features=128, out_features=128, bias=True)
        (1): ReLU()
      )
      (1): Sequential(
        (0): Linear(in_features=128, out_features=6, bias=True)
      )
    )
  )
  (actor): ModuleList(
    (0): ConvEncoder(
      (act): ReLU()
      (main): Sequential(
        (0): Conv2d(4, 64, kernel_size=(8, 8), stride=(4, 4))
        (1): ReLU()
        (2): Conv2d(64, 64, kernel_size=(4, 4), stride=(2, 2))
        (3): ReLU()
        (4): Conv2d(64, 128, kernel_size=(3, 3), stride=(1, 1))
        (5): ReLU()
        (6): Flatten(start_dim=1, end_dim=-1)
      )
      (mid): Linear(in_features=6272, out_features=128, bias=True)
    )
    (1): DiscreteHead(
      (Q): Sequential(
        (0): Sequential(
          (0): Linear(in_features=128, out_features=128, bias=True)
          (1): ReLU()
        )
        (1): Sequential(
          (0): Linear(in_features=128, out_features=6, bias=True)
        )
      )
    )
  )
  (critic): ModuleList(
    (0): ConvEncoder(
      (act): ReLU()
      (main): Sequential(
        (0): Conv2d(4, 64, kernel_size=(8, 8), stride=(4, 4))
        (1): ReLU()
        (2): Conv2d(64, 64, kernel_size=(4, 4), stride=(2, 2))
        (3): ReLU()
        (4): Conv2d(64, 128, kernel_size=(3, 3), stride=(1, 1))
        (5): ReLU()
        (6): Flatten(start_dim=1, end_dim=-1)
      )
      (mid): Linear(in_features=6272, out_features=128, bias=True)
    )
    (1): RegressionHead(
      (main): Sequential(
        (0): Linear(in_features=128, out_features=128, bias=True)
        (1): ReLU()
      )
      (last): Linear(in_features=128, out_features=1, bias=True)
    )
  )
)
[2023-04-11 20:30:07][base_learner.py:338][INFO] [RANK0]: learner save ckpt in ./default_experiment/ckpt/ckpt_best.pth.tar
[2023-04-11 20:30:14][base_learner.py:338][INFO] [RANK0]: === Training Iteration 0 Result ===
[2023-04-11 20:30:14][learner_hook.py:224][INFO] 
+-------+------------+----------------+-----------------+----------------+
| Name  | cur_lr_avg | total_loss_avg | policy_loss_avg | value_loss_avg |
…
